…
self.conv3 = nn.Conv2d(8, 16, 3, padding=1) #input -8x14x14 Output - 16x14x14 
# BN applied after this
self.conv4 = nn.Conv2d(16, 32, 3, padding=1)#input -16x14x14  Output - 32x14x14  
# BN applied after this
self.pool2 = nn.MaxPool2d(2, 2) #input -32x14x14 Output - 32x7x7 
# dropout applied after this
self.conv5 = nn.Conv2d( 32, 64, 3) #input -32x7x7 Output - 64x5x5 
# BN applied after this
self.conv6 = nn.Conv2d(64, 10, 1) #input -64x5x5 Output - 10x5x5
self.gap = nn.AvgPool2d(5) # input - 10x5x5 Output -10x1x1

Parameters

    Layer (type)               Output Shape         Param #

        Conv2d-1      |      [-1, 4, 28, 28]        |      40
        Conv2d-2      |       [-1, 8, 28, 28]       |         296
     MaxPool2d-3      |       [-1, 8, 14, 14]       |         0
        Conv2d-4      |       [-1, 16, 14, 14]      |       1,168
        Conv2d-5      |      [-1, 32, 14, 14]       |       4,640
     MaxPool2d-6      |         [-1, 32, 7, 7]      |           0
        Conv2d-7      |         [-1, 64, 5, 5]      |      18,496
        Conv2d-8      |         [-1, 10, 5, 5]      |        650
     AvgPool2d-9      |         [-1, 10, 1, 1]      |          0

    Total params: 25,290
    Trainable params: 25,290
    Non-trainable params: 0

Logs

--------epoch-1------- 0%| | 0/469 [00:00<?, ?it/s]/usr/local/lib/python3.7/dist-packages/ipykernel_launcher.py:61: UserWarning: Implicit dimension choice for log_softmax has been deprecated. Change the call to include dim=X as an argument. loss=0.3111923336982727 batch_id=468: 100%|██████████| 469/469 [00:22<00:00, 20.63it/s]
…
